Module_2/mnist_classifier_pytorch/saved_model/mnist_cnn.pth (torch, 903785 bytes, 8 tensors)

conv1.weight f4 [32, 1, 3, 3]
000000 ce ed 70 be b4 89 e6 bd 43 b6 8a be 71 1d 67 be
       -0.23528215 -0.112567335 -0.2709218 -0.22569825
000010 8d 6b 4b bc e9 31 83 bd 89 9d 07 be b8 07 34 be
       -0.012415779 -0.06406004 -0.13243689 -0.1758107
000020 a5 e8 48 bd 18 4c e0 3e f4 ff 82 3e 98 a9 71 3e
       -0.049049992 0.43808055 0.25585902 0.23599851
000030 24 9c 0b 3e 39 d1 7f 3e fc e7 6a be ac 45 02 bf
       0.13633782 0.24982156 -0.22940058 -0.5088756
000040 b0 f3 16 bf fc 55 83 be c4 87 b1 be a2 73 93 bd
       -0.5896559 -0.25651538 -0.34673893 -0.071997896
000050 05 90 a0 3e 6c e6 4d be 46 6c 5c be a5 fe 5d 3e
       0.31359878 -0.2010743 -0.21525678 0.2167917
000060 d7 27 88 be 64 0a 8f be 24 cd 8b be 2c 05 47 be
       -0.26592895 -0.27937615 -0.27304947 -0.19435567
000070 eb 8a 00 3e 41 9b 9d 3e 2d 34 81 be 41 a3 59 be
       0.12552993 0.30782512 -0.2523512 -0.21253683
000080 3a 1f 66 3e 6c f7 d5 be cc 0e 0e 3e 71 28 bd 3e
       0.2247285 -0.4179033 0.13872832 0.36944917
000090 01 c5 7e 3e 6c 21 0b 3e 53 00 13 3e 41 fd eb bd
       0.24879839 0.13586968 0.14355592 -0.11522914
0000a0 bf 8b 5c bd bb 62 98 3e 8a 2c de be e3 2c 91 bd
       -0.05384421 0.29762825 -0.43393356 -0.070886396
0000b0 41 d6 89 3e e1 fc 05 bd 0b 47 8d be d6 14 ec be
       0.26921275 -0.032711867 -0.27593264 -0.46109647
0000c0 3a ea 8e 3e e5 8e aa bd e3 e3 d2 3d 3a 18 8c 3e
       0.27913076 -0.08328036 0.10297372 0.27362233
0000d0 ed bd 92 bd bb 22 8a 3e e5 63 8e be 2b e1 14 bd
       -0.07165132 0.26979622 -0.27810588 -0.03634755
0000e0 9b 61 96 bd 46 41 0a be c7 b8 6a be 38 6e 3a be
       -0.073428355 -0.13501462 -0.2292205 -0.18206108
0000f0 66 59 52 3e c1 02 67 bd bc 2d c8 be d1 90 30 be
       0.20541915 -0.05639911 -0.39097393 -0.17242743
000100 70 05 6a be d4 b8 d3 3d 31 9a 48 3e f9 7a 6f 3e
       -0.22853637 0.103379875 0.1959007 0.23386754
000110 e6 38 4c 3e 7b 4a c0 bd fe 82 cc be eb 85 d6 bb
       0.1994358 -0.09389206 -0.3994369 -0.006546726
000120 f0 10 7a be da f0 c8 be f3 67 a0 be 4c 39 4d be
       -0.24420524 -0.39246255 -0.31329307 -0.20041388
000130 c0 ff 1d 3e 4e 93 fd bc db 8f f0 3e 92 2e 32 3e
       0.15429592 -0.03095403 0.46984753 0.17400578
000140 65 9c 9d 3e 04 b1 0e be cb a1 3c 3e 88 ce 91 3e
       0.30783382 -0.13934714 0.18421094 0.28477883
000150 2b 27 1e 3e 20 bc 6d 3e b4 10 0e 3e 0d 0b 22 3e
       0.15444629 0.23216295 0.13873559 0.15824528
000160 b2 f3 2f 3e 93 f5 3b 3e 73 f3 c5 3d 10 7d a1 be
       0.17182806 0.18355398 0.09665575 -0.31540728
000170 fe ed 2e bd 08 28 8c 3e fd 77 15 3e 72 eb dc bb
       -0.042707436 0.2737429 0.14596553 -0.0067419345
000180 db 25 23 3e 07 38 08 3d 44 f3 46 3e 2c d9 70 be
       0.1593241 0.033256557 0.19428736 -0.23520344
000190 ad 1b 61 be 48 6c 32 3e fa fd 22 bd a5 b4 a4 be
       -0.21983214 0.17424119 -0.039792992 -0.3216907
0001a0 ea 96 bb be 05 99 47 3e 74 73 89 3e 6e dc 7b bd
       -0.36638576 0.19491966 0.26845896 -0.061489515
0001b0 eb 33 e3 3d c5 41 d5 3d 3f 22 10 3f e6 7f 99 be
       0.11093887 0.10412935 0.56302255 -0.2998039
0001c0 a4 9b 62 be 1a 2b 8a 3e fb 15 2d be 6e f9 d5 be
       -0.22129685 0.2698601 -0.16902916 -0.41791862
0001d0 fa 66 0f 3e 57 f4 35 be 69 47 cd 3d fe 23 b2 3e
       0.14004126 -0.1776899 0.10023386 0.34793085
0001e0 1f 68 8f 3e a4 c9 7f 3e b5 6c 3c be 47 28 46 be
       0.28009126 0.24979264 -0.18400843 -0.19351302
0001f0 96 0c 08 bf 60 4d 2f 3d c6 a8 d0 3e 83 95 93 3e
       -0.53144205 0.0427984 0.40753764 0.28825006
000200 6e 2c 79 be 2c c4 bb 3d 6a 28 bf be cb 6c a8 be
       -0.24333355 0.09168276 -0.3733552 -0.32895502
000210 71 f3 42 be 01 34 af bd 2d 59 99 3c a9 24 43 be
       -0.19038178 -0.08554841 0.01871928 -0.19056953
000220 c3 cf d7 be 16 65 56 3e e5 e8 90 3e c9 48 9c be
       -0.42150697 0.20936999 0.28302684 -0.3052428
000230 b7 ac cc 3d 40 d9 87 3e 9c 6c 0e 3e 10 29 71 be
       0.0999388 0.26532936 0.13908619 -0.2355082
000240 8c b5 20 bc ed 0b e8 be 84 79 5f be de eb f5 be
       -0.009808909 -0.453216 -0.21823698 -0.48031515
000250 9f f9 80 3c e2 34 ad 3e 61 9f b9 bd 9d b7 18 3e
       0.015744029 0.3382941 -0.09063602 0.14913793
000260 f1 05 bd 3e 98 fc ae be 32 f6 8b be 5e a8 cd 3d
       0.36918595 -0.3417709 -0.2733627 0.10041879
000270 2f 2e cd 3e 7d bd a0 3e 96 64 8e be d7 f7 5d bd
       0.40074298 0.31394568 -0.27811116 -0.054191437
000280 91 5c ec bd 07 ba 14 3e a0 13 f9 be a5 a3 67 3e
       -0.11541093 0.14524089 -0.48647785 0.22621019
000290 51 0d 58 3d 53 90 59 be f5 e6 56 be d2 4e 99 3e
       0.052747075 -0.21246462 -0.2098654 0.29942948
0002a0 97 26 cf be 39 5f 6d bd c2 9a 8d 3e b6 e9 01 bd
       -0.4045913 -0.05795214 0.27657133 -0.031717025
0002b0 7e 1e 6a 3e 13 7c a8 be 23 4f 87 3d 7e b7 93 3d
       0.22863194 -0.3290716 0.06606891 0.07212733
0002c0 b4 43 71 3d 0d d0 f7 bc 10 61 73 bd 2f 1e 4f 3e
       0.058902457 -0.030250574 -0.059418738 0.20226358
0002d0 46 a1 a3 3e 57 18 7e be 65 ef c5 be ee 85 f1 3e
       0.3195898 -0.24813972 -0.38659206 0.47172493
0002e0 ff 45 fe bc 8b 01 c1 be 25 35 af bc ba 2f a5 3e
       -0.031039236 -0.3769649 -0.021387646 0.32262975
0002f0 2e 6b a7 bb 2d eb 51 be a5 2c fb 3d 21 b9 35 3e
       -0.0051092124 -0.20499869 0.12264375 0.17746402
000300 9f 4a a3 be 93 64 e0 bd 71 6f d4 3e 9b 74 94 be
       -0.3189287 -0.10956683 0.41491273 -0.28995213
000310 8d 92 b3 be c3 df 7a 3d 4e ce 63 3e 88 58 e1 3d
       -0.35072747 0.061248552 0.22246668 0.11003214
000320 4d 9b ea bd 3e 66 95 bb 30 87 ad 3e 58 29 e1 be
       -0.114554025 -0.0045593074 0.33892202 -0.43976855
000330 14 89 e6 3e b2 95 68 be e6 50 c8 be 4f aa 43 3e
       0.45026457 -0.22713354 -0.3912422 0.19107936
000340 f5 f0 70 3d ea 3a a3 3d 02 94 06 3e a3 d3 fb bd
       0.058823545 0.07970221 0.13142398 -0.12296226
000350 b9 68 45 3e 12 5d e4 bc bf 2f a4 be 91 ac 07 be
       0.1927823 -0.02787641 -0.32067677 -0.13249423
000360 e5 3a 23 be 41 5b a6 3e 37 01 98 3c 44 48 7d 3e
       -0.15940435 0.32491496 0.018555267 0.24734598
000370 f1 55 86 3e 39 3e f2 be 28 ba 8c 3e f1 17 96 bc
       0.26237443 -0.47313097 0.27485776 -0.018321963
000380 d8 2e ee bd 1f b5 ab 3e 6e 6f cb 3d db 78 0a be
       -0.116300285 0.33536622 0.09933363 -0.13522665
000390 d7 83 53 3d 0f 40 57 3e 8a f3 d4 3e ae ae fe be
       0.051639404 0.2102053 0.41592056 -0.49742645
0003a0 6b 7c 66 be 7f 1a 91 be 52 86 db 3e 7b cd b1 bd
       -0.22508399 -0.28340527 0.42875916 -0.086817704
0003b0 f3 3f 79 be 1e 2c 9b be 72 6a a9 be 29 47 10 be
       -0.24340801 -0.30307096 -0.33089024 -0.14089645
0003c0 45 d6 59 be a2 53 6b be 83 97 a7 3e 4a ce 8a bc
       -0.21273144 -0.22981122 0.32732782 -0.01694407
0003d0 ea 2e ae be c0 af fa be f3 7d 45 3d f9 32 5d 3e
       -0.34020168 -0.48962212 0.048215818 0.21601476
0003e0 b5 31 a8 3b c6 b6 b9 3e 46 57 c8 bd 44 c8 a6 3e
       0.0051328787 0.36272258 -0.09782271 0.32574666
0003f0 70 7e 6c be 76 0b 2a be a9 9c 43 be e9 c4 21 be
       -0.23095107 -0.16605935 -0.1910273 -0.15797772

conv1.bias f4 [32]
000000 86 16 83 3d e4 f0 a0 bd 76 39 07 3e 4a de 90 be
       0.064007804 -0.07858446 0.13205513 -0.28294593
000010 a8 c0 68 be 9f 68 cd bc cc 64 48 3e 79 99 58 bc
       -0.22729743 -0.025074301 0.19569701 -0.0132201845
000020 16 86 02 bd 37 25 e4 bd 02 f0 0b bd c5 75 6b 3e
       -0.031866156 -0.11139911 -0.034164436 0.22994144
000030 cf 51 33 be b9 e4 b6 bd fc 11 3b be 42 31 46 bd
       -0.17511676 -0.08930344 -0.18268579 -0.04838682
000040 83 53 51 3d 61 04 33 bd 3a e6 85 be 31 0d 6a be
       0.051105034 -0.043705348 -0.2615221 -0.22856595
000050 05 b7 3d be 86 83 3e bd 69 e7 29 be bb bc 00 bd
       -0.18526848 -0.04651215 -0.16592182 -0.031429987
000060 d2 c8 b1 be 98 05 d0 bc 89 6d f7 bd 9a 05 93 bc
       -0.34723526 -0.025393292 -0.12081439 -0.017947007
000070 c3 bf 6b 3e 0f 62 89 be 7f ff 17 3e ec ac c9 bd
       0.2302237 -0.26832625 0.14843558 -0.09847435

conv2.weight f4 [64, 32, 3, 3]
000000 8f 30 56 bc ee f5 63 bd 5d 3a af bc 6d 29 8e 3c
       -0.013073101 -0.05565446 -0.021390134 0.017353738
000010 21 5a 3c 3c a7 3b 20 be d1 d3 b0 3c d7 45 50 3d
       0.011496098 -0.15647756 0.021585377 0.050847854
000020 e9 bd 82 bd 35 9c b4 b9 65 c7 e3 bd 8c 75 40 be
       -0.06383879 -0.0003444866 -0.11122016 -0.1879484
000030 92 b2 9f 3b f4 62 06 bd af f0 4d be e5 e8 bd bd
       0.004873582 -0.032809213 -0.20111345 -0.09272937
000040 25 7e fc bc 25 00 0a be 22 db 18 bd 6a c7 24 bd
       -0.03082187 -0.13476618 -0.037318356 -0.04022924
000050 58 d9 01 3c 6b cb 58 3b 2f 6c 9a 3d 26 fa 33 3c
       0.007925354 0.003308023 0.07540166 0.010984933
000060 cb 12 96 bd 21 5c 0c 3d 44 91 93 3d 68 ec 56 bc
       -0.07327803 0.03426755 0.072054416 -0.013117887
000070 43 73 0e 3c f7 09 84 bd 89 51 8b bd d4 c3 ce 3d
       0.008694473 -0.06447213 -0.06802661 0.10095945
000080 06 d0 9e 3c c6 e1 be bd 8d b1 50 3b 5c 79 07 3e
       0.019386303 -0.093204066 0.003184411 0.13229889
000090 8a fb 56 bc 1e ea b5 bc 9d fc 22 bd dc 15 ea bc
       -0.013121495 -0.022206362 -0.039791692 -0.028574876
0000a0 c1 fa d8 3d 64 03 c3 3d a4 49 2c be 48 35 ec 3c
       0.105947025 0.09522131 -0.16824967 0.028834
0000b0 f7 89 de 3d 70 af ef bd 32 bd 70 bc 6e 56 97 3d
       0.108661585 -0.11703384 -0.014693545 0.07389532
0000c0 13 7b 18 be 2f 17 bc b9 20 71 bb 3d 97 ff 07 3e
       -0.14890699 -0.00035875427 0.09152436 0.13281094
0000d0 0c 07 11 bd 9b 9f c1 bd 9a 40 07 3a f8 9c ea 3b
       -0.03540711 -0.094542705 0.00051594677 0.0071598254
0000e0 78 7c 1e 3d 59 44 19 bd d0 8f 84 3c 78 0d a3 3b
       0.03869292 -0.037418697 0.016181856 0.004975971
0000f0 6a 1f 0e bd 10 c2 6d 3d d4 69 d0 bd f7 e8 b5 ba
       -0.034697928 0.0580464 -0.10176435 -0.0013878633
000100 94 29 55 bd fa 4b 45 bd 2d 5a 42 bd 12 96 86 3d
       -0.052041605 -0.04816816 -0.04744928 0.065715924
000110 ed 9a 0b 3d 69 e7 e4 bd ef 26 ed 3b ac e6 1b 3d
       0.034083296 -0.111769505 0.0072373073 0.038061783
000120 b5 a3 18 be 90 39 66 bd 84 ba a4 3c e6 60 fd bd
       -0.149062 -0.05620724 0.020108469 -0.123719975
000130 7d f6 a3 bd b1 99 df 3d 30 aa 00 3e 3f 2f 40 3d
       -0.08005998 0.10917986 0.12564921 0.046920057
000140 d7 fe 0a bd 4b 4b af 3d a9 0e 58 bd 0a a0 15 bc
       -0.03393444 0.08559283 -0.052748356 -0.009132395
000150 b2 1c 90 bd 7c d8 2d 3d 6a e6 29 bd d9 4a 9c bc
       -0.07036723 0.042442784 -0.041479506 -0.019078659
000160 f8 17 6c bd 7d ea 13 3c b9 a8 82 3c 0d 88 03 3a
       -0.057640046 0.009028074 0.015949594 0.00050175266
000170 da e7 41 3c c3 b1 d0 bd 10 39 3b bb fa 6c e6 3d
       0.011835063 -0.10190155 -0.0028567947 0.112512544
000180 c8 43 20 bd d0 2c 96 bd c8 03 8a 3d 2f 7a 37 bd
       -0.03912714 -0.07332766 0.067390025 -0.044794258
000190 78 a0 89 bd 7e b9 c0 3d 81 1d d3 bc 4a f0 64 3d
       -0.0672006 0.0941038 -0.025770904 0.05589322
0001a0 4b 62 9b 3d f2 c5 d2 bb d8 f8 92 3d 07 ba 6e bd
       0.07587107 -0.0064322883 0.071763694 -0.05828288
0001b0 40 4a 5d 3d e3 8f c2 3d 79 29 8a 3d e9 32 2d 3d
       0.05402589 0.095001005 0.067461915 0.04228488
0001c0 e2 77 93 3d 5b 7a ea 3d 71 cf 00 be cb 3b fa 3c
       0.072006 0.11449119 -0.12579133 0.03054609
0001d0 5b e5 30 3e 5a bd 4a bd 2d 24 07 be 61 a5 d1 3c
       0.17274992 -0.049496986 -0.13197394 0.025591554
0001e0 36 ed 19 bc 77 c5 8f bc 86 ac ff bd 91 ab 26 be
       -0.009394934 -0.017550213 -0.12484078 -0.16276385
0001f0 41 da d7 3d 92 b0 b7 bb ef 97 a4 3b fc 2c b4 bd
       0.105396755 -0.0056057656 0.0050229947 -0.087976426
000200 ef 74 90 3d 98 2a c1 bd 8b a0 c5 bd 70 c4 85 bd
       0.07053553 -0.09431952 -0.09649762 -0.06531608
000210 a9 da 53 bd d9 98 dd bd 81 4c b7 bd 33 c6 f6 bc
       -0.051722202 -0.10820169 -0.08950139 -0.030123806
000220 57 c6 b8 bd 57 a2 b3 3c b8 36 00 be 05 1d a8 bd
       -0.09022205 0.021927996 -0.12520874 -0.0820866
000230 bb 8b 6c 3d 05 da ae 3c 1a 52 ae 3d 40 3a 2f 3c
       0.057750445 0.021344194 0.085117534 0.01069504
000240 0a 29 1e be 94 22 c5 bc c8 93 f3 bd 63 26 41 be
       -0.15445343 -0.02406434 -0.118934214 -0.188623
000250 e3 f7 ed bc 85 e2 97 bd 0a 91 a7 bd d6 00 4f bd
       -0.029048866 -0.07416252 -0.08181961 -0.050537907
000260 1b 92 df bd 28 02 9f bd 73 df 59 bd 05 15 75 3c
       -0.10916539 -0.07764083 -0.053191613 0.014958625
000270 1a cd 94 bd cd 9d a0 bc 27 9d 1a 3e 4f ae 1f 3e
       -0.072656825 -0.019606495 0.15099011 0.15593837
000280 6a 05 59 bb ca 10 01 bd 19 17 36 3c 52 4f 7d 3d
       -0.00331148 -0.031510152 0.011113905 0.061843224
000290 0f 85 64 bd bb a6 ce bd c6 2e a3 39 8c a6 91 3d
       -0.055790957 -0.10090395 0.00031124632 0.071118444
0002a0 97 93 e8 bd 7f b9 8e 3d d4 4a e6 3d f2 f0 2f bd
       -0.113562755 0.06968974 0.11244741 -0.042954393
0002b0 f0 9d d2 3d 50 a2 28 bd 39 15 7f 3c 8f 7d 69 3d
       0.102840304 -0.04117042 0.015569025 0.057004508
0002c0 e9 59 0c 3e ff 69 30 bd 5c 03 b1 bd 4e e4 20 3e
       0.13706173 -0.043069836 -0.08643219 0.15712091
0002d0 ea 9c 56 3c d4 03 88 3d 3e f9 5e 3e 25 9b a7 bc
       0.013098935 0.06641355 0.21774766 -0.02045972
0002e0 6f 0e b7 bc 1d 4b 84 3e 3d 73 ba 3d 8c c4 92 3c
       -0.02234575 0.25838557 0.09104011 0.017915986
0002f0 d9 f1 1d bd e4 6f d8 3b 71 b6 0e 3a a0 17 5b bd
       -0.038560722 0.0066051353 0.0005444056 -0.053489327
000300 bf 2f 04 bd 03 13 d2 3d bc 67 d2 3d 7e 69 d2 bd
       -0.032272097 0.102575324 0.10273692 -0.10274027
000310 48 c1 93 3d 3a 62 1e 3e 5c 85 d5 bd 0c ca 66 bd
       0.072146 0.15467158 -0.10425827 -0.05634503
000320 e7 fa 11 3e 12 82 0b be 83 5b 78 be 55 6c 13 3c
       0.14255868 -0.13623837 -0.24253659 0.008997996
000330 f5 78 80 3c 68 88 2f be c3 0c 32 be 77 b2 0b bd
       0.015682677 -0.17141879 -0.1738768 -0.034105744
000340 7f b4 1d 3d b9 66 99 3c 99 31 74 bd b7 4c bb 3a
       0.038502213 0.01872574 -0.059617613 0.001428983
000350 6f d2 96 bd 6b 82 bf bd b3 29 30 3d e6 91 24 bd
       -0.07364356 -0.09351047 0.043008517 -0.040178202
000360 3c 28 1a bd 9e 34 14 3c 0c 63 52 3d 85 1e 0b be
       -0.037636027 0.009045748 0.05136399 -0.13585861
000370 4e 75 07 be 1e 81 33 3d 48 69 35 bc 4c 66 17 be
       -0.13228342 0.043824308 -0.011072464 -0.14785117
000380 8a 88 9f 3c f1 ab aa 3d 74 93 2e 3b c4 93 4a 3c
       0.019474287 0.083335765 0.0026638182 0.012364332
000390 c3 cd 24 bd cf 13 dc 3c b5 6a cb 3d 38 a9 88 bd
       -0.040235292 0.026864914 0.09932462 -0.06672901
0003a0 16 2b 94 bd 93 97 9b bb b2 27 c5 bd 97 00 49 bd
       -0.072347805 -0.0047482937 -0.09626712 -0.04907283
0003b0 22 07 20 be 8f 27 96 bd fb 9c 40 be 73 1d d5 be
       -0.15627721 -0.07331764 -0.18809883 -0.4162403
0003c0 dd e0 99 bd 91 a7 aa bc e1 1e 8d be e2 63 06 be
       -0.075135924 -0.020831855 -0.2756262 -0.1312404
0003d0 5a 1d 19 3b 90 7a 80 3d 6c e0 32 bd b3 34 0c 3d
       0.0023363442 0.06273377 -0.043671057 0.034229945
0003e0 60 5b 31 3e c6 f8 02 3e 21 0b e6 3c 14 d7 20 bd
       0.17320013 0.12790212 0.028081479 -0.039267614
0003f0 a8 ab 52 bd f3 8e 34 bd b2 94 01 3c 42 d1 f7 bb
       -0.051433235 -0.04408164 0.007908987 -0.0075627873

conv2.bias f4 [64]
000000 5c 9c 5b bd 48 17 31 3c 64 56 92 3b 37 ad 1f bd
       -0.053615913 0.010808773 0.004465865 -0.03898355
000010 87 2c e6 3c 92 5d 89 bc 40 ca 8d 3c 00 d8 02 3d
       0.028097404 -0.01676825 0.017308354 0.031944275
000020 d5 99 a9 bd 7e b6 0e bc 33 a5 8f bd 86 2b 3b bd
       -0.08281294 -0.008710502 -0.07013931 -0.045695804
000030 48 22 1f 3d 7e f4 96 3a 59 b8 17 bd 38 cc 8f bd
       0.038851053 0.0011516956 -0.037041042 -0.070213735
000040 1a 30 21 bd 6f b0 7c bd 9e fc 94 bd bd ec 95 bd
       -0.039352514 -0.061691698 -0.072747454 -0.07320545
000050 b9 77 b8 3b 86 a2 5b bd f2 ed 03 3d f5 5e 5c bd
       0.0056295064 -0.05362179 0.032209344 -0.053801496
000060 c0 6f c1 bc 19 34 60 3d bc ed 0a 3d c5 c0 84 bd
       -0.023612857 0.054737184 0.033918127 -0.0648208
000070 10 f1 39 3d ee 5a ab bd 03 53 99 bd ae 77 55 3b
       0.04539591 -0.08366953 -0.07486536 0.0032572555
000080 ea 4a 32 3d e0 f9 8b bb 28 63 36 3c 03 86 52 3b
       0.043528475 -0.004271731 0.011132039 0.0032123334
000090 14 ad 33 bd e2 12 37 3d 7b 9b d4 bc 7a b1 34 3c
       -0.043866232 0.044695742 -0.025953045 0.011028642
0000a0 f5 67 04 3d 34 20 b8 3b 16 10 18 bd e4 26 d7 3c
       0.032325704 0.0056190733 -0.037124716 0.026263662
0000b0 fd 9d ee bb 63 1b 6b bd b0 6f c6 bd a0 9b 37 bd
       -0.0072820173 -0.057399165 -0.096892715 -0.04482615
0000c0 49 e2 1c bd 3e d6 09 bd 26 ac 19 bc a6 d8 ae 3c
       -0.03830174 -0.033651583 -0.009379422 0.02134354
0000d0 39 cf 73 bd 55 0e 06 bd 5b be c7 ba e5 42 53 bd
       -0.059523795 -0.03272851 -0.0015239225 -0.051577467
0000e0 d3 39 6c bd 08 4f 2f bd e3 08 9a bc e7 f2 82 bd
       -0.057672333 -0.04279998 -0.018803066 -0.06393986
0000f0 fb da 89 3c 26 f5 3f 3b aa fb b3 bd 68 72 bd bc
       0.01682805 0.0029290407 -0.087882355 -0.023125842

fc1.weight f4 [128, 1600]
000000 a4 9a 98 bc 7b 6b 77 3c a5 1e e5 bc 0e 5a 6d bd
       -0.018628426 0.015101309 -0.027968714 -0.05794721
000010 c0 34 08 3d 85 b9 12 bd 5b 55 29 3c 72 ef 69 bc
       0.03325343 -0.035821456 0.010335292 -0.01427828
000020 30 c5 1a 3c ad 07 14 3d 2d 99 1b bd 74 88 81 bc
       0.009446427 0.036140133 -0.037987877 -0.015812136
000030 72 47 93 3c dc 48 5d bb c1 a7 62 bd bd 8d 79 bd
       0.017978404 -0.0033765351 -0.055335764 -0.060926188
000040 2b 87 97 bd bf 04 4a bd 2f 4c cd bc 8c 09 b0 ba
       -0.07398828 -0.049320932 -0.025060741 -0.001343058
000050 86 28 96 3d ca d3 a8 bd 4d f5 64 bd 82 5c 27 bd
       0.07331948 -0.082435206 -0.055898 -0.040859707
000060 89 a2 94 bd ad f6 65 bc a3 ee f3 bc 4d c0 c1 3c
       -0.072575636 -0.014035863 -0.029776877 0.023651266
000070 b3 34 a8 3c 76 f4 ad bc f3 01 a9 bc 47 34 45 bd
       0.020532941 -0.021234732 -0.020630812 -0.04814556
000080 c2 2a f8 3a 73 24 fd 3a 09 06 00 3c 06 8a f1 bb
       0.0018933641 0.0019313231 0.007813939 -0.00737119
000090 d0 01 2d bc 4f 90 29 3c 0b 80 12 3a 12 ad bb 3c
       -0.010559514 0.010349347 0.0005588538 0.022909675
0000a0 73 1c 68 bd a8 1d b1 bb dc 09 79 3b c5 6d c6 bc
       -0.056667756 -0.0054051466 0.0038000261 -0.024222264
0000b0 94 1a 3e 3b 99 c7 e8 bc 17 b5 58 bd 50 3d 81 bd
       0.002900754 -0.028415488 -0.052907076 -0.063105226
0000c0 7c 37 82 ba 48 09 d8 bc d2 9c a2 bb 0b 58 9b 3b
       -0.0009934749 -0.026371613 -0.004962542 0.00474072
0000d0 43 c8 16 3c 61 95 f7 bc ee 2c 5d 3c ca e4 8b 3c
       0.00920302 -0.030222597 0.013499482 0.017076869
0000e0 47 a4 d3 bc 54 53 ee ba 32 33 2f bc 9d c4 c5 3c
       -0.02583517 -0.0018182793 -0.010693358 0.024141604
0000f0 d6 ad b8 3b 1b 83 c1 bc 4a 7e 23 3c 63 8e a2 3c
       0.0056359572 -0.023622086 0.00997884 0.019843286
000100 c8 7d c8 3b f8 30 f7 3c 43 ee ac 3b 9e bd 1d 3c
       0.00611851 0.030174717 0.0052774264 0.009627728
000110 52 94 64 3b e0 3e a9 bb b5 18 84 3c df 73 f4 bc
       0.0034878445 -0.005164966 0.016125062 -0.029840408
000120 9f a7 0c 3c 94 12 fd bb 00 0e 29 3b 42 0a 2d bc
       0.008584886 -0.007723162 0.0025795698 -0.010561528
000130 4c fe 79 bb 49 9d b9 bc cf 4e ea bc 1a 32 85 3d
       -0.0038145958 -0.022658007 -0.028602032 0.06503697
000140 d8 4e b3 bb 34 fc 45 bc dd 9d 0e bd e0 b2 28 3c
       -0.0054720454 -0.012084056 -0.03481852 0.010296553
000150 e2 16 e0 3c f5 29 0a bd 02 74 59 bd a0 0f b0 bc
       0.027354661 -0.03373142 -0.05308915 -0.021491826
000160 50 bd 0b bd 60 76 ab 3a 22 59 19 bd 02 e6 79 bc
       -0.03411609 0.0013081543 -0.03743852 -0.015252592
000170 71 08 48 bd ba b2 4e bc a1 b4 18 bd a7 e1 d3 bc
       -0.048836175 -0.012615854 -0.037281636 -0.025864435
000180 f9 4d 87 3c e3 b2 55 3c 87 a0 fd bc a1 74 40 bd
       0.016516672 0.013043138 -0.030960334 -0.046986226
000190 10 12 72 bc 04 1c 15 bd 81 f9 98 bb cf 25 3e bb
       -0.014774814 -0.03640367 -0.004668415 -0.0029014235
0001a0 fb 29 0c bd 31 6e 5d 3c 2e 88 f0 bc ad 04 9c bb
       -0.034219723 0.013515041 -0.02936181 -0.0047612996
0001b0 05 c0 4c bd 2c 78 44 bd 8c 73 86 bc 85 d2 b1 bc
       -0.04998781 -0.047966167 -0.016412519 -0.021706829
0001c0 18 8c 05 bd 62 b7 38 bd b5 a8 28 bd 28 11 b5 bb
       -0.032604307 -0.045096762 -0.041176517 -0.005525727
0001d0 b6 20 b9 3c fb 6a fb 3b 93 48 1e bd 19 f3 d3 bc
       0.022598606 0.007672665 -0.03864343 -0.025872754
0001e0 2a ef 28 bc ad b1 69 bb a3 6d da b9 4f c6 89 bd
       -0.010310927 -0.0035658882 -0.00041661886 -0.067272775
0001f0 73 11 3f bd 36 e0 62 bc 80 56 26 bd 8d e1 b1 bb
       -0.0466475 -0.013847401 -0.040609837 -0.005428499
000200 df a4 e0 bc 58 f1 9f bc 97 86 2f bd d7 b3 0c bc
       -0.027422367 -0.019524261 -0.042852964 -0.008587799
000210 11 8c 70 3c 7a 45 38 bd b4 91 ea bc 88 90 38 bc
       0.014681832 -0.044988133 -0.02863393 -0.011264928
000220 5a 48 97 bd ff 4d 7b bc b1 93 a4 3b 15 33 37 bd
       -0.07386847 -0.01533842 0.005022489 -0.04472645
000230 db e6 87 bc 85 07 a4 bd c8 b5 92 bd e0 e7 e4 bb
       -0.016589573 -0.08009247 -0.07163578 -0.0069856495
000240 6f 2c 47 bb ed 44 ea 3c 22 e7 67 bd 3b 36 10 bd
       -0.0030391475 0.02859732 -0.05661691 -0.03520797
000250 df 76 79 bd 23 f6 ad bc 12 3b ba bc ad 4d 57 3c
       -0.06090438 -0.021235531 -0.022733245 0.013141078
000260 c7 12 4a 3d ea 6e bd bc 9a 11 aa 3a cd 8b b6 bc
       0.049334314 -0.023124177 0.0012975216 -0.02228346
000270 af 50 aa 3b 55 c6 5a bb be 8c 4c 3b 8f 18 28 3d
       0.0051976065 -0.0033382375 0.0031211819 0.041039046
000280 e4 9c e4 bb 03 62 5a 3c 22 21 7e bc ac d7 0b bc
       -0.0069767106 0.013329032 -0.015510829 -0.008535307
000290 bf 54 95 bc fb de 2c bc 22 12 98 bc 8e 42 38 bd
       -0.018228887 -0.01055121 -0.018563334 -0.044985346
0002a0 b4 c0 0e bc a0 bd ad bb 16 fc f7 bc 9c dc e9 bc
       -0.008712936 -0.005302146 -0.030271571 -0.028547578
0002b0 b5 cb 8f bd a8 ba 78 bd 5a ac f3 bc eb f7 4c 3c
       -0.07021276 -0.060724884 -0.02974527 0.01251028
0002c0 41 8d be bc 4f 07 c5 bc ea 72 cd bc aa 91 78 3c
       -0.023260714 -0.024051337 -0.02507921 0.015171448
0002d0 13 32 a5 bc d9 97 28 bc d5 01 9b bc 18 ad 90 bc
       -0.020165479 -0.01029011 -0.018921772 -0.017660663
0002e0 ac ce 10 3b b1 8b 5d bb 42 d3 b0 bb 45 9a 16 bd
       0.0022095842 -0.0033805186 -0.0053962776 -0.036768217
0002f0 40 7c 53 bc a8 03 46 bc bd 32 25 bd d3 ea 33 bc
       -0.0129080415 -0.012085833 -0.04033159 -0.010981279
000300 55 12 2a bd 28 ed df 3b 1a 19 0a 3d 06 d4 2a bc
       -0.04152139 0.006833691 0.033715345 -0.010426527
000310 8c ea 7c 3c c3 29 c7 bc 85 8d f3 bc ad bb 9f ba
       0.01543678 -0.024311906 -0.029730568 -0.0012186669
000320 29 96 0a bd 63 34 8c bc d9 58 c5 bc fd 63 22 bd
       -0.03383461 -0.017114824 -0.024090217 -0.039646138
000330 12 53 87 bd 1e e0 03 bd d5 00 2b bd 67 48 de bc
       -0.06607641 -0.032196157 -0.04174884 -0.027134134
000340 b5 47 33 bc 4c ae 38 3d 9d 82 00 bd 0c fd d6 bc
       -0.010942389 0.045088097 -0.031374563 -0.026243709
000350 0b 34 c5 bc 6b 59 3c bb ab eb ed 3c f7 4c 1b bd
       -0.024072668 -0.002873982 0.02904304 -0.037915196
000360 d6 a3 14 bd 6e 1a 02 bd 53 a4 12 bd b2 7c 60 3c
       -0.03628906 -0.031763487 -0.035801243 0.013701605
000370 47 b4 27 bd 6b b4 30 3b 7a 53 8e bd b5 c5 85 bd
       -0.04094341 0.0026963006 -0.06949516 -0.0653185
000380 2a 05 11 bd ee ee cd bc 1f 06 42 3c 67 63 db 3a
       -0.035405315 -0.025138345 0.01184228 0.0016737998
000390 8a 72 61 bd dd e1 93 bd 16 c2 2b bd c7 98 bf bc
       -0.055040874 -0.072208144 -0.04193314 -0.02338828
0003a0 cc b7 98 3c 20 78 fd bc 3b e7 bb bc 2b fa 6c bc
       0.018642329 -0.03094107 -0.022937408 -0.014463942
0003b0 c0 de 15 3d 9b 73 e4 bb 3b bb 33 bd df f2 ca bc
       0.036589384 -0.006971789 -0.04387973 -0.024774013
0003c0 f5 a4 d2 bd 5f 3c 65 bd a0 39 02 bd 01 6c 76 bd
       -0.10285369 -0.055965777 -0.031793237 -0.060161594
0003d0 2a 59 f7 bc f7 1c fd bc ce 04 f0 bc c1 d5 b1 bb
       -0.030193884 -0.0308976 -0.029299166 -0.005427093
0003e0 6d ee 4f bd 44 e9 80 bd 3b f1 6c bc b4 d9 8d 3a
       -0.05076449 -0.06294492 -0.014461811 0.0010822327
0003f0 5f 6f 79 bc ad 51 62 bc 38 92 90 bc 91 3b 23 bd
       -0.015224307 -0.013813418 -0.017647848 -0.03985173

fc1.bias f4 [128]
000000 b4 fe c2 bb 81 df 67 3c 45 d1 87 3c 77 11 01 bc
       -0.005950773 0.014152409 0.01657928 -0.007877699
000010 6a 67 be bb 05 58 71 bb e4 8b 6c 3c 10 19 26 3c
       -0.0058106678 -0.0036826145 0.014437649 0.010137811
000020 8b 8f 97 3c d4 59 43 3c d6 47 05 b9 b7 5d 6b bc
       0.018501064 0.011923272 -0.0001271063 -0.014365605
000030 80 a2 c3 3b 95 7e c4 3c f9 4c 44 bc a2 41 c1 3c
       0.0059702992 0.02398614 -0.011981242 0.023590866
000040 25 b4 ff 3c 55 24 64 bd 4c 57 89 39 59 f0 e2 bb
       0.03121383 -0.05569871 0.00026195718 -0.0069256243
000050 57 3f 33 3c f8 ba c8 3c af fa cd 3b 48 04 42 3c
       0.010940394 0.024503216 0.0062859873 0.011841841
000060 b4 81 b8 bc 17 50 f9 ba 64 4c f6 bc f3 6a 2f 3d
       -0.022522785 -0.0019021061 -0.030065723 0.042826604
000070 9a 2a 7a bc ff 2d b4 3c 82 7f 86 bc 04 0f fb bc
       -0.015268946 0.021994589 -0.016418222 -0.030646808
000080 7a d7 c1 bb ae 60 56 3b 89 fc fa bb d5 f4 f6 3c
       -0.0059155794 0.0032711434 -0.007659499 0.030146042
000090 f7 b9 90 3c 6e 74 89 bc 7e 9c 93 bc 3d 23 e2 3c
       0.0176668 -0.01677915 -0.018018957 0.027604694
0000a0 f5 50 12 39 50 55 a0 3b e0 51 b1 3b c7 19 7e 3b
       0.00013953804 0.0048929825 0.0054113716 0.0038772689
0000b0 e0 a7 42 bc 42 05 a4 bc b7 f2 8a bb aa 71 ca 3b
       -0.011880845 -0.020022038 -0.0042403596 0.0061781006
0000c0 c3 b5 c8 bc 61 be 1e bc a8 22 4f bb 25 d8 4d 3c
       -0.024500733 -0.009688945 -0.003160635 0.01256374
0000d0 29 4b 34 3c 02 27 10 3d 2e 42 ed bc 65 ce 1e 3c
       0.011004248 0.03519345 -0.028962221 0.009692763
0000e0 73 f0 b6 3c 6f 92 05 3d ba 36 91 3c c5 c0 99 3c
       0.022331452 0.032610353 0.017726291 0.018768677
0000f0 23 c0 eb bc cd 76 b2 bc e7 5b c9 bc 52 57 b1 3c
       -0.028778141 -0.021785164 -0.024579955 0.021648083
000100 65 b4 8f bc c4 32 87 bd f1 62 c7 bb 6a 0e db bc
       -0.017542074 -0.0660148 -0.006084793 -0.026740272
000110 28 b1 01 bd 10 6e 8a 3c d4 49 fc bc 49 f5 3d 3d
       -0.03166309 0.016898185 -0.030796923 0.0463765
000120 fc 30 e0 bc 8f 67 69 ba fb 63 66 bc ff df cb 3c
       -0.027367108 -0.0008903676 -0.014061923 0.024887083
000130 70 2e 76 ba 6c e7 95 bc 33 bf fb 3b 59 6f 85 bc
       -0.0009391075 -0.018298827 0.007682705 -0.016288446
000140 77 d4 f7 bb 82 d8 b2 3a b5 c9 8d 3c aa bd 41 bd
       -0.0075631696 0.0013644847 0.017308095 -0.04730002
000150 9a 4d 9c 3c 2e 1d bb bb 00 ec 6e bd 86 67 7a bc
       0.019079972 -0.0057102656 -0.058330536 -0.015283471
000160 c3 03 71 bc 9a 3f e7 bc a9 9e 3c bc a8 bc 8e 3c
       -0.0147103695 -0.02822857 -0.011512437 0.017423943
000170 49 99 4f bb c9 02 1f bd bc 2f 87 bc 40 6c f4 ba
       -0.0031677058 -0.038821016 -0.016502254 -0.0018647984
000180 ba e1 4f bc d5 a6 a1 bb b6 c6 35 bc 41 8f bd bc
       -0.012688095 -0.004933218 -0.01109474 -0.023139598
000190 d6 54 b9 bb 54 c1 3d ba 9e 83 9c bb 3f ca af bc
       -0.005655865 -0.0007238586 -0.004776432 -0.021458743
0001a0 4d 22 3f 3c 0c e1 00 3c d5 6e 14 bc 36 61 e2 3a
       0.011665893 0.007866155 -0.009059628 0.0017271403
0001b0 4a 4a da 3a 10 aa 88 bc 2f bb fe 3c 3e fb 65 3c
       0.001665422 -0.016682655 0.031095115 0.014036952
0001c0 32 bf 5b 3d a3 67 8a 3c 3e b1 19 3c 21 ff 91 3c
       0.053649135 0.016895121 0.009380637 0.01782185
0001d0 81 d7 f9 bc 68 ea 53 3a 29 a3 51 3b 97 66 0a bb
       -0.030498268 0.00080839405 0.003198812 -0.0021118277
0001e0 f4 47 a9 3c ae 2f dd 3b 7e 0d 80 bd a8 a5 cc 3b
       0.020664193 0.0067500686 -0.062525734 0.0062453337
0001f0 2c 3d e9 3c 47 e2 c5 bc 1b e9 68 3b 3d 2d 40 3c
       0.028471552 -0.024155749 0.0035539332 0.011729536

fc2.weight f4 [10, 128]
000000 30 a2 7c 3a ce db 8a 3d 00 f6 91 3d 56 89 bf bd
       0.0009637205 0.06780206 0.07126999 -0.093523666
000010 26 b2 d5 bd 2d 0a c8 3d c9 88 92 3d 1c b4 92 3d
       -0.1043437 0.09767566 0.07154996 0.071632594
000020 cf db d1 bd d9 7f a9 3c cd fc a6 bd cb 8e bb bd
       -0.10247003 0.020690845 -0.08153687 -0.09158095
000030 9b 04 26 3d b6 65 c1 bd db b9 33 be af 7b c3 3d
       0.040531736 -0.09443228 -0.17551367 0.09545075
000040 f5 09 6d bd 23 37 32 3d 1a 37 22 be 5c 6e 3e be
       -0.057870824 0.043509614 -0.15841332 -0.18596786
000050 db e7 39 3d 32 b9 19 be ef d4 f8 3d bd bb a9 3d
       0.04538713 -0.15012053 0.12149989 0.08287761
000060 05 77 9d bd 04 d9 71 bd 4f 35 a0 3d bd 84 03 be
       -0.07688717 -0.059044853 0.07822668 -0.12843604
000070 fe de bb bd 06 9f 8a bd 77 ea 73 bd 67 bd 23 3d
       -0.09173392 -0.067686126 -0.059549775 0.03997555
000080 61 fa b6 bc 7f de 8a bd 84 b7 8f bd ec cf b7 3c
       -0.022336187 -0.06780719 -0.07017425 0.022438012
000090 04 81 05 3e c2 30 67 bd bf e7 44 3c ad fa 80 3d
       0.13037497 -0.056442983 0.012018143 0.062978126
0000a0 91 de 84 bd 25 fd ca 3c fd 97 13 3d 0c 29 ad 3d
       -0.06487764 0.024778912 0.03603362 0.08455095
0000b0 f1 ac c2 3c 7a ac 88 3d 3f b4 93 3d 90 14 31 3d
       0.023764106 0.06673522 0.072121136 0.0432325
0000c0 e1 c9 56 3d 45 ac ab bd c2 91 4d bd 22 2e d7 3d
       0.05243862 -0.08382467 -0.050187834 0.10506846
0000d0 5b 67 d3 bd ff 64 b2 3d 47 39 8c bc 5c e9 de bd
       -0.10322448 0.0871067 -0.017117156 -0.108843535
0000e0 8d 53 01 3e 69 60 db bd 35 2c 46 3d 64 a1 b4 bd
       0.12629528 -0.10711748 0.048382003 -0.08819845
0000f0 14 08 47 bd 6e d3 fc bd 0c 77 49 3d 9b 70 ed 3c
       -0.04859169 -0.123450145 0.049185798 0.028984359
000100 35 f5 73 3d b3 95 de 3d 9e dd 9a 3d 04 a8 a2 bd
       0.05956002 0.108683966 0.075618014 -0.07942203
000110 61 5d 3b bd f9 b4 42 3c 82 d5 29 ba c8 96 41 be
       -0.04574335 0.011883968 -0.00064786535 -0.18905175
000120 58 8b d7 ba 9f a7 9a bc 5f 4e 33 be c8 d6 cb 3d
       -0.0016444726 -0.018878756 -0.17510365 0.09953076
000130 4c df 1e bc d1 55 ba 3c 56 fc 98 bd 91 5e 78 bd
       -0.009696793 0.022745999 -0.07470004 -0.06063706
000140 86 44 a2 bd 90 6e 00 bc 64 6f 4c bd 18 3b 05 be
       -0.07923226 -0.00783886 -0.049910918 -0.13010824
000150 5f 6f dc 3b f2 68 4e 3d 9c 47 41 3d 9a 17 85 3d
       0.0067271437 0.050393052 0.047187433 0.06498642
000160 8b a8 0b be ea 15 7c 3d 5b 82 91 3d 31 b1 90 bd
       -0.13638513 0.061544336 0.071049415 -0.070650466
000170 88 9d af bd a0 26 8f bd 88 48 c7 bc 9e cd cd 3d
       -0.085749686 -0.06989789 -0.024326578 0.10048984
000180 24 52 92 bd 64 b3 ce 3c 4d f4 a5 bd 0e f8 9b bc
       -0.07144573 0.025232024 -0.08103237 -0.01903918
000190 9b 85 b7 bd 66 c9 bc bd f6 3d 4c bd 7a 3e bb 3d
       -0.0896103 -0.09218101 -0.049863778 0.09142776
0001a0 4b 80 ff 3c ec 85 22 bd 69 4c 6e bc 24 9d 13 3c
       0.031189105 -0.0396785 -0.014544585 0.009009633
0001b0 be 9d be 3d f6 c5 83 3a de eb f0 3d c4 c3 2c be
       0.09307431 0.0010053504 0.11763738 -0.16871554
0001c0 9b a5 0c bd b4 78 26 3b 13 cf ae bd ae 49 16 bd
       -0.03433762 0.0025401535 -0.0853559 -0.03669136
0001d0 e0 f4 2c bd d5 11 08 be f1 c8 00 3d 5e 4b a5 bd
       -0.04222572 -0.13288052 0.031441633 -0.08071016
0001e0 19 29 01 bc d1 c5 bc 3d db 9d af bc 1c 82 54 3d
       -0.007883334 0.09217418 -0.021437576 0.051881894
0001f0 91 65 1c bd 8c 79 9a bd 12 cc 91 bd 49 bb 74 3d
       -0.0381828 -0.075427145 -0.071190014 0.05974892
000200 ff 13 8e bd bb 03 2b bd 84 6b 12 3e 4c fe 06 be
       -0.06937408 -0.041751605 0.14298826 -0.13182944
000210 28 ad 07 bd 88 47 0c be 09 f6 e8 3c 0f de 29 bd
       -0.03312412 -0.13699162 0.028437631 -0.041471537
000220 eb 7c 44 3d be 28 8f 3b 0d 33 a3 bd c8 9e a0 bd
       0.047970694 0.0043688705 -0.079687215 -0.07842785
000230 90 04 b7 bd 14 1a a6 3d 6f 06 72 3c 4c fa 9d 3d
       -0.08936417 0.08110443 0.014772042 0.07713756
000240 59 b2 69 bd c3 d3 6c bd 89 d5 86 3c 33 21 d8 3d
       -0.05705485 -0.05781914 0.016459243 0.10553207
000250 0e c6 c7 3c 9c a7 89 3d 0a ec ee 3c b2 34 11 bd
       0.024386432 0.06721422 0.029165287 -0.035450645
000260 0d da 19 bd 56 5c c9 3d 20 37 5a 3c 5d 9e 3e 3d
       -0.037561465 0.09832065 0.013318807 0.046537746
000270 a0 74 e8 bd 08 ed b0 3d 20 ed de bc b1 25 2c be
       -0.113503695 0.0863896 -0.02721268 -0.16811253
000280 19 92 31 bd e8 48 a1 3d 97 cb ca ba 61 bb d5 3d
       -0.04335222 0.07875234 -0.0015472051 0.1043613
000290 58 1e 9b 3c 72 54 93 3c 49 f5 64 bd bc b7 c0 bd
       0.018935367 0.017984603 -0.055897985 -0.094100446
0002a0 a4 b9 60 3d 1c 3d 7c bd 63 5e 56 3d 8c 72 87 3c
       0.05486454 -0.061581716 0.052336108 0.016534112
0002b0 76 6f 1c bd fa c6 f3 bd 6c 58 16 be 68 8e a9 3d
       -0.038192235 -0.11903186 -0.14682168 0.08279115
0002c0 ed 02 1e be 86 f3 d2 bc 39 49 33 3c 97 06 85 bc
       -0.15430804 -0.025750887 0.010942751 -0.016238494
0002d0 90 3b fe 3c 9f 01 6c 3d bf 94 a6 3d 31 f0 ef bd
       0.031034261 0.057618733 0.0813384 -0.11715735
0002e0 ef 40 fd 3d 18 73 05 3e ee 75 74 3c 01 87 12 3d
       0.12365901 0.13032186 0.014920695 0.03577328
0002f0 02 c2 38 bd d2 b7 04 bd a1 28 de bd 9d f3 95 3d
       -0.045106895 -0.032401867 -0.10847593 0.07321856
000300 c7 d2 46 bd 6b c6 a3 3d 88 5d 17 bd 2a 1a a0 3d
       -0.048540857 0.079968296 -0.036954433 0.078174904
000310 be 0b 71 bd e3 8c 2c 3d a4 02 24 bd 5f 4f d6 3d
       -0.05884909 0.042126548 -0.04004158 0.104643576
000320 d0 1e d5 3c 5d a2 d3 3c 22 0e bd 3c d9 e8 d2 3d
       0.02601567 0.025834257 0.023078028 0.102983184
000330 36 51 41 bd f8 cd 02 3c 12 45 a3 3d a2 1d 3a bd
       -0.04719659 0.007983677 0.079721585 -0.045438416
000340 df a1 5e bd 34 17 94 3d 48 e6 ae 3d eb 8f e0 bd
       -0.05435359 0.07230988 0.085400164 -0.1096495
000350 62 da ca bd 33 f6 05 3d d1 25 99 3c 7e 19 42 be
       -0.099049345 0.032705497 0.01869479 -0.18955037
000360 58 f1 9c 3b 7e a8 b2 3c 5d 47 1b be c9 77 83 bd
       0.0047895126 0.021808859 -0.15163942 -0.064193316
000370 e8 52 c4 bc 5f 67 4d be 8d 89 bc bd 8b a2 95 bd
       -0.023965314 -0.20058964 -0.09205923 -0.07306393
000380 e8 cf bb bd 91 5c 93 bd 24 77 09 be 4a 73 f4 bc
       -0.09170514 -0.0719539 -0.13424355 -0.02984013
000390 b2 05 73 bd 7e c5 85 bd 18 19 f5 bd e3 ed 7e 3d
       -0.059331603 -0.06531809 -0.11967677 0.062238585
0003a0 a3 11 ea 3d 5e 33 3c bd 4e 58 48 bd 18 af 7e bc
       0.11429145 -0.045947425 -0.04891234 -0.015544675
0003b0 b5 27 40 3b f2 07 21 be c6 59 94 3d 08 3b 04 3a
       0.0029320542 -0.15725687 0.072436854 0.0005044197
0003c0 2f 75 be 3d b0 20 29 3d 59 d1 e4 bc 1c 0e 67 bd
       0.09299695 0.04129094 -0.027931856 -0.05640994
0003d0 4d 99 10 3d ce e3 d1 3d 50 16 92 3b ea 5d de 3c
       0.03530245 0.102485284 0.0044582263 0.027144391
0003e0 33 b0 7c 3c 7a 2f ad bd 85 88 31 be c5 19 a7 bd
       0.015422869 -0.08456321 -0.17337234 -0.08159212
0003f0 55 98 87 3d 9d d1 43 3c 2c 78 2d be dc 40 94 ba
       0.06620852 0.011951831 -0.16940373 -0.0011310834

fc2.bias f4 [10]
000000 5b 2e 95 3d 31 93 d2 bc ae e9 10 bd b6 b5 0a bd
       0.07284232 -0.025704952 -0.035379104 -0.0338647
000010 c5 74 4b 3d 16 cf 68 bd bf 9e 60 bd 44 75 90 3d
       0.049671907 -0.056838118 -0.054838892 0.07053617
000020 32 93 69 bd 57 5f c3 bd
       -0.057025142 -0.09539669
